models/model_scripted.pt (torch, 8116 bytes, 4 tensors)

weight f4 [10, 4]
00000000: b413 94be 84f0 003e fcff 13be 5067 c43e
00000010: 9cea d6be fc9b aabe bce3 b3be 4060 f63d
00000020: b784 563f 5413 e43e 289b 3bc0 7a61 4ac0
00000030: b09a 4bbe 8c7d 113e e6e4 acbe 3426 063e
00000040: 273b 4dbe c7a7 3f40 e75d dcc0 bce8 61c0
00000050: 5603 f0be b8d2 f7bd 0095 2cbb e4d6 b03e
00000060: bc57 28be 1022 1ebe 40c1 db3d 6869 fbbd
00000070: 3fa1 df3e 22e6 3abf 535a fc3f f0d8 8f3f
00000080: 8ebb dfbe c063 68be da34 cabe e068 5d3e
00000090: 39f1 b7bf 88fd 2cc0 72bd 0941 9d1e ef40
-0.28921282 0.1259175 -0.14453119 0.3836007 -0.41975868 -0.33322132 -0.35134685 0.12030077
0.83796257 0.44545996 -2.931345 -3.1621995 -0.19883227 0.14208049 -0.33768386 0.13100511
-0.20042096 2.9946153 -6.8864627 -3.52983 -0.46877545 -0.12100738 -0.0026333928 0.3453895
-0.16439718 -0.15442681 0.10730219 -0.12275964 0.43677709 -0.73007405 1.9715065 1.1238079
-0.4369778 -0.22694302 -0.39493448 0.21622038 -1.437049 -2.7029743 8.608751 7.472487

bias f4 [10]
00000000: 145a d9be 147d 1f3e 418e 2540 3cae 40be
00000010: bd04 1c40 4e14 a1be 504e 133d 02b1 a83f
00000020: 6831 34be d9cf 4ec0
-0.42451537 0.15575057 2.5868075 -0.18816465 2.4377892 -0.31460804 0.035963356 1.3179018
-0.17596972 -3.231436

weight f4 [3, 10]
00000000: fb4f 383e e25d c8bd 7925 e23e 47de 9fbe
00000010: 6c36 7a40 14c0 14be cb6c 73bd a6e8 17c0
00000020: 75c2 373e 4b2e 47c0 aba0 88bd c5e3 793c
00000030: 0e8d 3e40 4f1c d93d b37b b9c0 0246 773e
00000040: e880 a5bd cd8f 86bc 57e1 12bd 6342 08c1
00000050: cf8f 13be ac48 a0be b220 84c0 676d 853d
00000060: d9ca a2c0 2040 973e 2367 82be d3ae 9d3f
00000070: 9109 313d ab26 0341
0.1799926 -0.09783532 0.44169214 -0.31224272 3.9095716 -0.14526397 -0.059429925 -2.3735747
0.17945273 -3.1122005 -0.0667127 0.015252058 2.9773593 0.106011026 -5.79635 0.241478
-0.080812275 -0.016425991 -0.035859432 -8.516208 -0.14410327 -0.31305444 -4.128991 0.065150075
-5.0872617 0.2954111 -0.25469312 1.2318977 0.043222014 8.19694

bias f4 [3]
00000000: f746 94bf 6172 1e3f b163 03c0
-1.1584157 0.6189328 -2.0529597
